m2+m3/bertopic_model_data/bertopic_model/topic_embeddings.safetensors (safetensors, 6232 bytes, 1 tensors)

topic_embeddings f4 [4, 384]
000000 54 46 c2 3c 66 de 6b 3e 1b 52 60 bd 88 ab 75 bd
       0.023715176 0.23034057 -0.054765802 -0.059978038
000010 0a 34 ee bc b8 3c cc bc d9 2c ed 3d 03 5a d1 3c
       -0.029077549 -0.024931297 0.1158082 0.025555616
000020 17 7c ca bc c0 78 70 3d 50 14 c0 3d 18 b9 db bc
       -0.024717374 0.058708906 0.09378874 -0.026821658
000030 7e 89 79 3c 6d 54 da 3d 13 dc 34 3d a5 66 04 be
       0.015230535 0.10660634 0.04415519 -0.12929781
000040 2b fa 8e 3d d8 7b 94 3c 71 eb 96 3d a2 49 f3 bc
       0.069813095 0.01812546 0.07369126 -0.029698197
000050 d8 ed 28 3d 36 ec bc bd c6 72 7f 3d df 77 8e bd
       0.04124245 -0.09224741 0.062365316 -0.06956457
000060 d4 52 e2 bc e8 c9 dc bc f6 51 11 3d c0 31 bf ba
       -0.027627386 -0.026951745 0.035478555 -0.001458697
000070 6d bb c8 3d d4 b9 2e bc d3 49 4a 3d 3e 03 77 bd
       0.09801374 -0.010664422 0.04938681 -0.060305826
000080 2f 83 b3 3d cc 93 9d bb e2 bd 58 3c a0 c5 88 3d
       0.08765256 -0.0048088785 0.013228865 0.06678319
000090 45 91 b0 bd 97 ac 02 3c 80 54 40 b9 4a f0 19 3e
       -0.08621458 0.007975719 -0.00018342026 0.15033069
0000a0 fc 5f b0 bd c0 7e 6b bd 44 38 47 bd 94 4e 41 3e
       -0.086120576 -0.057493925 -0.048637643 0.18877631
0000b0 16 63 75 ba da db 6c 3b b9 38 29 bd 0d d8 f9 bc
       -0.0009360773 0.0036141784 -0.04131386 -0.030498529
0000c0 a1 a1 bb bd 7e bd 09 bc 06 99 28 bd e7 ff 03 be
       -0.09161688 -0.008406995 -0.04116156 -0.12890588
0000d0 ae ba 5d bd b9 fa 85 bd 8f 58 a2 bd b4 13 05 3c
       -0.05413311 -0.06541962 -0.079270475 0.008122373
0000e0 ba 48 fb 3d 0d 50 41 bd 68 3e a0 bd f2 88 23 3e
       0.12269731 -0.047195483 -0.07824403 0.15970209
0000f0 de 3a 3f bd 61 1f 05 3d 7f 53 5b be c5 80 dd 3d
       -0.046687 0.03250063 -0.2141857 0.108155765
000100 ef d9 8d be 17 2f 04 bd 3c cb 37 3d a6 7d b2 3d
       -0.27705333 -0.03227147 0.044871554 0.08715372
000110 e0 44 ea 3c 39 30 03 be 9e b9 04 3d 63 c9 0c bd
       0.028597295 -0.12811364 0.03240358 -0.034371745
000120 2d fb 74 bd 83 b2 a2 3d 2c f3 f2 3c d6 3c 0b 3e
       -0.059809852 0.07944205 0.029656969 0.13597426
000130 0a ed 0f bd d9 d6 a7 3d 55 06 a8 3d 73 b6 b1 bd
       -0.035138167 0.08195276 0.08204333 -0.086773776
000140 af b1 4b 3d 6b b4 da bd 02 fe 8f 3a 89 c6 0b 3d
       0.04973 -0.10678943 0.0010985734 0.034124885
000150 e2 9e e0 3c b8 8f 77 3d ef 22 2b 3c 9e ae 0b 3e
       0.027419511 0.060439795 0.010445341 0.1364083
000160 58 1f 1a 3e 12 25 96 bd fc 1d f0 3d 0a 5f 9b bd
       0.15051019 -0.07331289 0.11724469 -0.07586487
000170 2c e7 6d 3c 8c 5d 16 be 08 23 4c 3d b2 11 06 3d
       0.014520448 -0.14684123 0.049838096 0.03273172
000180 ee 02 5a bd a5 57 bd bd ba aa 04 bc cd 33 84 3e
       -0.05322545 -0.092452325 -0.008097345 0.2582077
000190 54 a3 08 be 8a ea 45 3d ea d0 bd bd be a6 90 3c
       -0.13343555 0.048319377 -0.09268363 0.017657634
0001a0 26 de 95 bd 27 e3 d5 bc 43 60 10 3c 61 9f b2 bd
       -0.07317762 -0.026109291 0.008812013 -0.08721805
0001b0 59 0e cd 3d 4c 89 29 3d 5d f4 a3 bd 76 25 64 bd
       0.10012502 0.041390702 -0.08005593 -0.055699788
0001c0 0a 23 76 b9 88 61 09 3d 8c 3a 41 bd 87 40 22 3e
       -0.00023473441 0.03354028 -0.047174975 0.15844928
0001d0 14 49 3f bd d0 08 82 ba f5 cf 59 3d f8 b2 16 bd
       -0.046700552 -0.0009920839 0.05317684 -0.03679177
0001e0 7f 89 28 3d e0 70 95 3b 25 4c e3 bb e7 69 f4 bd
       0.04114675 0.004560575 -0.0069365674 -0.11934262
0001f0 70 e2 86 3c a1 0f 2f be 7e 26 48 3d 45 8a e2 3d
       0.016465396 -0.17095806 0.048864834 0.11061529
000200 6e ec cd ba ae 7a ba 3c 22 59 26 3e 0f 4c 77 bd
       -0.001571072 0.022763576 0.16244939 -0.06037527
000210 a4 3a 07 be a3 50 19 3c 62 1b 48 3c 96 70 1b bd
       -0.13205963 0.009357604 0.01221356 -0.037949167
000220 4e 13 6f 3d 7a 0d ac 3d a4 3a e4 bd 9e e3 84 3c
       0.05836802 0.08401008 -0.11143997 0.016221818
000230 2f b4 45 3d df e1 db 3d 83 66 c0 bd ef 6f d4 3d
       0.04826754 0.10736441 -0.093945526 0.10372912
000240 f1 90 bb 3d 19 ca 03 3e a0 d3 c1 bc 95 0e 10 3e
       0.09158505 0.12870063 -0.023660481 0.14068063
000250 0f ea a3 3d 89 74 53 bd a6 c4 a0 bd 61 21 d0 ba
       0.080036275 -0.05162481 -0.07850008 -0.0015879088
000260 fd d7 cb 3d ef 2b 12 3e 30 b4 33 bd a4 93 12 3b
       0.09953306 0.14274572 -0.043873012 0.0022365833
000270 ad 46 4b 3e 03 f7 af 3d 8e 3f 03 3e 65 7e 0a be
       0.1985118 0.085920356 0.12817213 -0.13524778
000280 cb 9a a2 bd c2 bb 34 3c 13 69 17 3d 05 65 9d bc
       -0.07939681 0.011031093 0.03696544 -0.019213209
000290 e2 57 4a 3b 1a fb 0e bd 65 b7 35 bd ed 9e e5 bd
       0.0030875136 -0.034907438 -0.04436435 -0.11211953
0002a0 39 54 fc bc 3b b1 01 3d e4 4e c3 3d a5 b2 51 bd
       -0.03080188 0.03166316 0.095365316 -0.05119576
0002b0 d9 7e 63 3d 89 f2 a6 3d 33 db b4 3d c7 bd 8e bd
       0.055540893 0.08151729 0.088308714 -0.06969791
0002c0 85 25 2a 3e 90 3a f8 3c de 8e 32 bd 3a a4 d0 bd
       0.16615875 0.030301362 -0.04359328 -0.10187574
0002d0 69 99 6d 3d 54 55 6d bc fb 60 d1 3d f0 bb a5 bc
       0.05800763 -0.014485676 0.10223576 -0.020231217
0002e0 00 04 50 3d 13 14 8a 3b 12 6d 36 bd 8e 72 5d bd
       0.050785065 0.004213819 -0.04453761 -0.054064326
0002f0 a5 39 3e 3d 9f ed 73 3d 11 88 0d be fc 3b a8 3d
       0.046441693 0.059552785 -0.13821436 0.08214566
000300 d8 7b ad ba 8e 32 a2 bd de 7c d2 bd 79 71 d0 bd
       -0.0013235761 -0.07919799 -0.10277723 -0.10177893
000310 e1 62 9c 3d 72 11 ba bd 1e 55 c2 bc 2b fc 24 3e
       0.07636047 -0.09085359 -0.023722228 0.1611182
000320 a0 40 0d be 19 1c 00 bd d0 ad ab bd 33 9e 56 3c
       -0.13794184 -0.031276796 -0.083827615 0.013099241
000330 8c 5d f2 bc 48 ab b8 3d d6 be f9 ba 6c 97 df bd
       -0.029585622 0.09017044 -0.0019054066 -0.10917553
000340 b4 63 bc 3d 1c 13 29 bd 5b 0c a4 3c 30 b5 c4 3d
       0.09198704 -0.04127799 0.020025423 0.09604871
000350 3d 74 8b bb 0d 0f 51 3d b0 0e 50 3c c9 77 55 3e
       -0.0042558 0.051039744 0.012698814 0.20846476
000360 c4 c1 b7 bd 10 56 18 3d 08 6f 7d bd ef 97 2e 3c
       -0.08972505 0.03719145 -0.061873466 0.010656341
000370 90 bc 26 bd 58 61 8a 3d 1c e8 ec 3c b0 7a 8e be
       -0.04070717 0.06756848 0.028919272 -0.27827978
000380 8f 00 1b be 71 d0 5b bc 8c 10 85 bd 65 50 93 bd
       -0.15136932 -0.0134163955 -0.06497297 -0.071930684
000390 a0 e9 c6 3d 87 d8 1f bd cb 45 79 bc fa 15 19 bd
       0.09712529 -0.039024856 -0.015214394 -0.037374474
0003a0 dc 60 98 3d 07 2c 54 3b d1 6b 21 be 82 07 b1 bc
       0.074403495 0.0032374875 -0.15763785 -0.021610025
0003b0 f1 ef 2f 3e b4 88 c0 bb 55 f1 95 bd fc 97 7a 3c
       0.17181374 -0.0058756713 -0.07321421 0.015295025
0003c0 b5 ab 2d bd ee 35 5d 3c 03 57 fa bd 38 b6 d5 3d
       -0.04240008 0.013501627 -0.122236274 0.10435146
0003d0 4e d9 b5 bc 80 59 e1 3d 31 cd 42 3d 68 bd 30 3d
       -0.022198346 0.11003399 0.047558967 0.043149382
0003e0 f3 33 2d bd 85 04 8f 3d 2f 39 52 3e 3d ee 47 be
       -0.04228587 0.06983284 0.20529626 -0.19524474
0003f0 fa 65 d8 bd 51 51 1d bd c6 1f 6c bc f0 b2 45 be
       -0.105663255 -0.038407627 -0.014411872 -0.1930654
